model/model.ckpt (torch, 7111 bytes, 9 tensors)

actor_fc1.weight f4 [20, 9]
000000 f6 ba 3d 3e b9 1b 8b bd a4 3c b3 bd 00 2f 63 be
       0.18528351 -0.06792397 -0.08751801 -0.22185898
000010 37 3b 82 be e5 c8 3f 3e f7 64 af bc ca 60 46 3e
       -0.25435802 0.18728979 -0.021410448 0.1937286
000020 c0 0c 84 3d a0 3d ff bc 5e ee b6 be d0 6f 16 be
       0.06447744 -0.031157315 -0.35728735 -0.1469109
000030 9e 21 22 be e9 46 a3 3e 4d 75 bd be 32 53 ae be
       -0.15833136 0.31890038 -0.37003556 -0.34047848
000040 aa 5b f8 3e c4 39 c6 3e 9d 0f 55 3e 36 a6 89 bd
       0.48507434 0.38715947 0.20806737 -0.06721155
000050 eb c9 ef bd 41 81 07 3e ab 84 c8 3e 7d 9f a3 be
       -0.11708435 0.132329 0.39163718 -0.31957617
000060 e3 33 e2 3d d4 75 f8 be 94 dc fa bd 8b 77 3c 3d
       0.11045053 -0.48527396 -0.12249103 0.046012443
000070 90 1b b5 be 98 eb 7f be 97 90 9f bd ad 59 bd be
       -0.3537259 -0.24992216 -0.0779125 -0.3698248
000080 31 d4 e3 3e c3 3c 5b be 8a f6 fd 3d 44 62 31 3e
       0.44497827 -0.21409898 0.12400539 0.17322642
000090 4c c1 ca be ac 25 52 be 6e 1b 15 be e8 9f 6c 3e
       -0.396006 -0.20522183 -0.14561245 0.23107874
0000a0 9b dd fa 3d f8 1f db bc f0 32 d1 be e0 0b 26 3c
       0.12249299 -0.026748642 -0.40859175 0.010134667
0000b0 40 71 98 3e a5 38 c6 bd 9a 14 91 be 91 cb 1e 3e
       0.29773903 -0.09678773 -0.2833603 0.15507342
0000c0 bd f1 c2 be 3d 76 7e be ac c9 7d 3e 85 86 34 bd
       -0.38075057 -0.24849792 0.24783963 -0.0440736
0000d0 77 dc 71 3e 5c f7 1c 3e 13 a4 c2 3e 08 a5 01 bd
       0.23619257 0.15328735 0.38015804 -0.031651527
0000e0 e1 c6 cf bc d5 7f 75 3d 66 31 7c be 45 83 b5 bc
       -0.025363388 0.059936363 -0.24628219 -0.02215732
0000f0 cd 9f 21 be 97 32 60 3e 87 65 53 be cc 9a 98 be
       -0.15783615 0.21894298 -0.20644198 -0.298056
000100 94 33 1d 3d 7b 56 95 3e 23 73 84 3e 6e 6e a6 be
       0.038379267 0.29167542 0.25869092 -0.32506126
000110 1d 3a 04 bf 16 71 92 be 63 69 98 bd aa a6 e8 3e
       -0.51651174 -0.28601903 -0.07441976 0.45439655
000120 1d 98 92 3d 9e c4 af 3e fa ed ed 3e c6 a8 f7 3e
       0.071579196 0.34329695 0.46470624 0.4837095
000130 30 a2 5e ba 07 d2 a5 3e 7e 41 89 be d0 0a ad be
       -0.0008492796 0.323868 -0.2680778 -0.33797312
000140 fc 1e fa bd 94 73 14 be 8c 21 ae 3e 76 62 7c be
       -0.12212941 -0.14497215 0.3400997 -0.24646935
000150 4a f7 20 3e 76 d5 84 be f9 7c d4 3e 9e 9e a8 3e
       0.15719333 -0.25944108 0.41501597 0.32933515
000160 f9 d8 3d 3d 1c 76 79 3e 2a aa 0b be ff 18 61 3e
       0.0463495 0.24361461 -0.13639131 0.21982192
000170 bc af 38 be 82 87 bc be 46 20 8e 3d 5a 5c 5a 3e
       -0.18035787 -0.36822134 0.069397494 0.21324292
000180 79 80 46 bc 1b 7f 70 be 9a 18 ad be 6e ae f2 3e
       -0.012115591 -0.23485987 -0.33807832 0.47398704
000190 5d c4 0b be 89 fc 92 be 3c aa d4 bc 1a 82 ae be
       -0.13649125 -0.28708294 -0.02596008 -0.34083635
0001a0 28 c7 db be 8c 1c 99 3e 4a c5 84 3e 4c 05 e6 3e
       -0.42925382 0.29904592 0.2593177 0.44925916
0001b0 2f 42 61 be 21 74 06 bd 9c 63 a0 be 6e 22 ab 3e
       -0.21997903 -0.032825593 -0.31325996 0.33424705
0001c0 f5 ac 3c be 79 c4 82 3e ae d3 8e bb 8e 91 b1 3d
       -0.18425353 0.25540522 -0.0043587303 0.086703405
0001d0 08 67 2d 3e b1 18 67 3d 9e 29 98 3e 5b 2d 27 be
       0.16933835 0.056420032 0.2971925 -0.16325895
0001e0 3a f2 0b be 63 0c cf 3e 8a c6 57 bd 02 47 34 3e
       -0.13666621 0.40439138 -0.052679576 0.17605212
0001f0 1a a7 8a 3d 92 7d b4 3e 7c bf d1 be 5f fa 18 be
       0.06770153 0.35252053 -0.40966403 -0.14939259
000200 03 5c b0 3e 0b 0a 19 be 22 d2 72 be de a4 b1 be
       0.344452 -0.14945237 -0.23712972 -0.34696096
000210 6e 44 bc be 47 12 43 3e 14 cc 8d be 19 99 c5 be
       -0.36770958 0.19049941 -0.27694762 -0.38593367
000220 19 f0 9b 3e d8 26 40 3d 3c fd 24 be 64 66 be be
       0.30456617 0.046912044 -0.16112226 -0.37187493
000230 47 99 ba bd 2a 14 9f be 5a 4a 70 3e de d3 3a be
       -0.091112666 -0.3107007 0.23465863 -0.18244883
000240 7e 65 d9 3d e4 63 63 3e 44 91 ca 3c 5c 31 b0 3e
       0.10615061 0.22206074 0.024727471 0.34412658
000250 75 e8 83 3c 9f 54 75 be 41 ff d5 be f2 0e 36 3e
       0.016102055 -0.23958062 -0.41796306 0.17779139
000260 e4 4b 92 bd 39 0b 90 bd b2 f0 c9 3e 19 8d b4 be
       -0.07143381 -0.070333906 0.39441448 -0.352639
000270 a3 02 63 bd 7c 96 6c 3e 75 09 91 3e a3 26 a4 be
       -0.055422436 0.2310428 0.28327528 -0.32060727
000280 1d 44 34 be ad 39 d6 be c2 ec 2e 3e ce 21 87 3e
       -0.17604108 -0.41840878 0.17082503 0.26392978
000290 e0 a9 b3 3e 9f 9c 12 3c 8f b9 5f bd ee 3a 9f be
       0.35090542 0.008948474 -0.05462032 -0.31099647
0002a0 aa 90 0d bd bc 55 c2 be 7b 5e 8c be c4 ef f4 3e
       -0.03456179 -0.37956035 -0.27415833 0.47839177
0002b0 05 fd e1 3e 7d 3c ea 3e ba 75 b6 3e 56 0d 35 be
       0.4413835 0.45749274 0.35636693 -0.17680869
0002c0 2e 6a 2b 3e c7 64 86 3d bb 66 10 3e 6a ec b3 be
       0.16739723 0.065621905 0.14101689 -0.35141307

actor_fc1.bias f4 [20]
000000 6e 4b 74 bd 38 ae 77 bd 5a 52 74 bd 2d 62 9f ba
       -0.059642248 -0.060468882 -0.05964885 -0.0012159996
000010 95 71 65 bd 58 43 98 3d 5f 4d 74 bd e7 c5 8f bd
       -0.056016523 0.0743472 -0.0596441 -0.07020169
000020 79 b7 d8 bd 5b 7b 6d bd 44 73 9d 3b 93 d8 25 bd
       -0.1058187 -0.05797897 0.0048050005 -0.040489744
000030 0f b8 d8 3d ab 8f 56 3d 71 f3 45 bd 90 78 36 bd
       0.105819814 0.052383106 -0.048327867 -0.04454857
000040 16 0d 47 bd a5 50 57 bd 05 37 5b bd a4 4d 74 bd
       -0.048596464 -0.052567143 -0.053519268 -0.059644356

actor_fc2.weight f4 [20, 20]
000000 6e 7b 9e bd 77 15 a4 be ab a0 9e 3d a0 41 e0 bd
       -0.07738386 -0.32047626 0.07745489 -0.10950017
000010 a8 c6 73 bd 1f 24 5c be d2 6f 74 be 20 01 c9 bc
       -0.059515625 -0.21498154 -0.23870781 -0.02453667
000020 bc 26 b4 3e 98 b5 57 3d 00 67 a7 3d de 5e c0 be
       0.35185802 0.052663416 0.081739426 -0.37572378
000030 c0 e4 3e 3e f2 ad 56 3e 8b b0 2e be 3a 50 9a 3e
       0.18641949 0.20964792 -0.17059533 0.30139333
000040 a9 5c c2 be a4 b6 3f 3e 86 04 bd 3e 78 02 89 3d
       -0.3796132 0.18722016 0.36917514 0.06689924
000050 b2 7d b2 be bc 4e a4 3e 20 2c 91 be a2 0b 47 3d
       -0.34861523 0.3209132 -0.28353977 0.04859508
000060 51 11 5a be 47 92 76 be 8d a4 91 be e4 e5 77 3e
       -0.21295668 -0.24079238 -0.28445855 0.2420879
000070 43 aa 52 bc ec 8a b5 3e 7e 18 c9 3d c6 aa bc be
       -0.012857976 0.3545755 0.09819125 -0.3684904
000080 db 05 a5 be f4 2a 91 3e 0f b0 7e 3c 9b 47 b8 3d
       -0.3223103 0.28353083 0.015544905 0.08998033
000090 7f d1 38 be 2a 2b 92 3d 32 16 52 be b1 33 18 be
       -0.18048666 0.07137139 -0.2051628 -0.14863469
0000a0 33 95 76 3e 1e 3b 82 3e 5b 77 38 3e 4b e4 74 bb
       0.24080352 0.25435728 0.1801428 -0.0037367519
0000b0 9e 0b 03 3e c0 e7 8e 3e 37 ce 87 be 25 1a 04 be
       0.127974 0.27911186 -0.26524517 -0.12900598
0000c0 23 95 a2 3e be 63 93 3e ca dd dc be 47 2b bc be
       0.31754407 0.28787035 -0.43137962 -0.36751768
0000d0 a6 23 a6 3e 31 f4 77 bd 37 53 ac 3d b6 3f e3 be
       0.32449073 -0.060535613 0.084143095 -0.44384545
0000e0 56 05 2d 3e 94 48 b7 be ec b9 42 be bb c1 ac 3d
       0.16896567 -0.3579756 -0.19016236 0.08435389
0000f0 44 22 ba 3d d0 64 38 3e 8c 58 95 3e 87 17 6a 3e
       0.09088567 0.18007207 0.29169118 0.22860537
000100 ab a0 f7 bd d0 3f 9a 3e 4e c9 8b 3e ed dc 8a 3e
       -0.12091192 0.3012681 0.2730202 0.27121678
000110 88 9b 3b be da de bc be 69 76 9a 3e df 1c d0 bd
       -0.18321049 -0.36888772 0.30168465 -0.10161757
000120 67 04 ec 3e 15 58 40 3e 23 e2 24 be ea e5 ca be
       0.4609711 0.187836 -0.1610189 -0.39628536
000130 47 16 a4 be 47 3d d2 3d 54 09 a9 bd f8 49 2a 3e
       -0.32048246 0.10265594 -0.08253732 0.1662978
000140 0a 70 88 3e 26 05 c2 3e 28 44 44 bd f3 91 3d bd
       0.2664798 0.37894553 -0.04791656 -0.046281766
000150 30 15 99 be b3 52 a6 be 68 b7 80 3e a0 c1 19 3d
       -0.29898977 -0.3248497 0.25139928 0.03753817
000160 aa 1c 84 3e 31 d3 79 be 47 56 b8 bd 86 23 1f 3e
       0.2580312 -0.2439697 -0.09000831 0.15540895
000170 ea a9 06 3e e8 1e 9a bd 5f be 44 be de ad 4b be
       0.13150755 -0.07525426 -0.19213246 -0.19890544
000180 96 8b 82 3e 68 19 9c be 72 dc 14 be 30 3a 0b 3d
       0.2549712 -0.30488133 -0.14537218 0.03399104
000190 51 d1 2a 3e 1d 51 92 be cf 7a 8a be 2e 85 96 be
       0.1668141 -0.2857751 -0.2704682 -0.29398483
0001a0 f7 18 c2 3d 4d a9 8f be 8c 67 55 3e 57 df d9 3e
       0.09477418 -0.28058854 0.20840281 0.42553207
0001b0 32 6b 5e be 43 41 25 be c4 8e 99 be e8 c3 91 3e
       -0.2172058 -0.16138177 -0.29991734 0.28469777
0001c0 a2 2d 7b be 19 73 69 3e cb 8d 19 3e fe e2 78 3e
       -0.24529126 0.22797813 0.14995496 0.2430534
0001d0 d5 31 03 bd 9c 34 ba be 24 3c 88 3e 15 62 60 3e
       -0.032029945 -0.36368263 0.26608384 0.21912415
0001e0 d7 f3 53 3e 8d f6 80 3e 79 4b b7 3d 12 88 1f be
       0.20698486 0.25188103 0.08949942 -0.1557925
0001f0 42 a7 b2 be 1a a5 cf be 2b 59 34 be 21 f2 3f 3d
       -0.34893233 -0.4055565 -0.1761214 0.04686177
000200 bd 47 72 3e f1 ad 36 3d ce a3 f0 bd 47 b6 6a 3e
       0.23660178 0.044599477 -0.11749993 0.22921096
000210 04 af 2d 3e d5 c9 d2 be 4b 0d f6 bd d5 3e 34 3d
       0.16961294 -0.4116961 -0.12014254 0.044005234
000220 01 7a 94 3e 72 24 96 3e 00 ef 1e be 84 e0 d5 be
       0.28999332 0.2932468 -0.15520859 -0.41772854
000230 f7 76 a5 be ec 2c 29 3e df b9 a7 be 90 59 96 bd
       -0.32317325 0.16521043 -0.32758996 -0.073413014
000240 4f 8c 71 be e1 ad 8a 3e 9b 9a ad 3d bc 58 5d 3e
       -0.2358868 0.27085784 0.08476754 0.2161588
000250 48 17 03 3e ac 2c 92 3e c1 9a 5b be a3 58 8c 3e
       0.1280185 0.28549707 -0.21445753 0.27411374
000260 2c a4 00 be e8 22 5e 3e 7c 9f df 3d f0 f1 9f bd
       -0.12562627 0.21693003 0.10919091 -0.07809818
000270 ec b7 83 be 90 22 46 bd 14 d0 0f 3e 82 ad 56 3e
       -0.2572626 -0.048372805 0.1404422 0.20964625
000280 ae 02 8a 3e 4a a3 ab 3d 8c 6c b4 bd a5 02 9d be
       0.2695517 0.08380754 -0.08809766 -0.3066608
000290 7a a0 53 3e 8b b5 af 3d 14 25 74 3e 5a c8 55 be
       0.20666686 0.085795484 0.23842269 -0.2087721
0002a0 63 38 90 3e a4 f2 74 be 93 8b 60 be c4 e5 9a be
       0.2816802 -0.23920685 -0.21928243 -0.30253422
0002b0 73 0a 49 be 44 f6 95 be bd 9c 1a be 3e 5c cd 3d
       -0.19632892 -0.29289448 -0.15098853 0.100273594
0002c0 26 25 e0 be 47 b2 77 3c 4c 70 a9 be 22 29 bf 3e
       -0.43778342 0.015118188 -0.33093488 0.3733607
0002d0 6e 26 be 3e e8 8b 83 bd 98 10 f1 3d 6f 63 07 3d
       0.37138695 -0.064231694 0.11770743 0.03305381
0002e0 c0 3e 8d be 58 4a 0f 3e 10 87 dd 3d e0 ab 2c 3d
       -0.27586937 0.13993204 0.10816777 0.0421561
0002f0 33 1f 60 be e8 e5 07 be 38 2c b9 bd 17 b6 ab be
       -0.21886902 -0.13271296 -0.09041637 -0.3353736
000300 9a fc 8a be 64 83 07 3e 00 6a 53 be 91 0b 85 be
       -0.27145845 0.13233715 -0.20645905 -0.25985387
000310 5b 8f 7c be f9 c6 81 3e f9 7e 9a be 02 72 8e be
       -0.24664061 0.25347117 -0.30174997 -0.27821356
000320 b8 6e 0d 3e 95 98 e1 3e b6 79 c2 3e a7 73 1e 3e
       0.13811767 0.44061723 0.37983483 0.15473805
000330 fd cc 0d 3d b2 31 8f bd 80 6d 28 3d c9 2e 95 be
       0.03461932 -0.069919005 0.041120052 -0.29137257
000340 b5 0f 45 3d f8 a0 fd bd 6a b6 60 3e ec e0 c4 bd
       0.048110683 -0.12384218 0.21944585 -0.09613213
000350 7e 9b 45 be 3d 55 5f be 6d e4 f1 3d 3a 12 cb 3e
       -0.19297597 -0.2180986 0.11811147 0.39662343
000360 e3 fc 1b 3e 11 89 07 3d 62 83 86 3e a8 a1 71 3d
       0.15233187 0.0330897 0.26272112 0.058992058
000370 e5 57 7c 3e 20 29 3f 3e bd f2 54 bd b0 e5 8d 3e
       0.24642904 0.18668032 -0.051989306 0.277143
000380 c7 b0 00 be bd 7a cb 3c 85 c1 c7 3e 96 ff ce 3d
       -0.12567435 0.0248388 0.3901483 0.10107343
000390 c9 14 5b be 0a d6 8f 3e 9d 67 4d 3e e8 cb 0f be
       -0.21394648 0.28092986 0.20059057 -0.14042628
0003a0 8f b0 a0 3d 0a 95 04 3d 65 1a bb 3e 2e 67 63 3e
       0.07846176 0.032368697 0.36543575 0.22207329
0003b0 bf 84 f0 3c 1a 60 9a 3e 43 d4 9a be ad 1d 41 be
       0.029360173 0.30151445 -0.30240068 -0.18858977
0003c0 29 45 91 3d f7 7a 98 3e 38 ea 2a be 60 3b b2 3e
       0.070932694 0.29781315 -0.1669091 0.34810925
0003d0 68 88 8c 3e c1 3c 90 3d c5 b3 70 be 1b 7e 1f 3e
       0.2744782 0.07042838 -0.23506077 0.15575449
0003e0 eb 7f 33 3e bf 38 dd 3d 73 c0 56 3e 41 66 c1 3e
       0.17529266 0.10801839 0.20971851 0.37773326
0003f0 ae 1b f2 3d 9e 38 03 bd c9 31 f1 bc 31 05 a2 be
       0.11821686 -0.032036416 -0.029442685 -0.31644586

actor_fc2.bias f4 [20]
000000 28 52 74 bd d8 d5 61 bd 9b c1 87 bd c3 5a 0f 3e
       -0.059648663 -0.055135578 -0.06628724 0.13999467
000010 10 d9 61 bd 5d 9c 58 bc 83 2b 90 bd f8 35 38 bd
       -0.055138648 -0.013220874 -0.07039549 -0.044973344
000020 01 5f a0 bd f2 e2 4e bd ae bf b7 bd 2f 99 f0 3d
       -0.078306206 -0.0505094 -0.08972107 0.117479675
000030 eb 34 b6 bb 22 67 57 bd 7c 3d 8a bb a5 e3 53 bd
       -0.0055605075 -0.05258859 -0.0042187553 -0.05173077
000040 82 52 74 bd b2 52 74 bd ed 52 74 bd da 11 5d bd
       -0.059648998 -0.059649177 -0.059649397 -0.053972103

actor_fc3.weight f4 [15, 20]
000000 f0 1f b4 be 25 cf 93 be 63 ad 14 be fc 67 03 3e
       -0.35180616 -0.28868976 -0.14519267 0.12832636
000010 53 c9 ce bd f3 d5 26 3e ef de be 3e 0e 06 d6 bd
       -0.10096993 0.16292553 0.3727946 -0.104503736
000020 cb e7 db 3d a4 75 4e 3d c2 5e ed 3c ec b7 b5 3d
       0.107375704 0.05040516 0.028975848 0.08872971
000030 7f 11 b7 bd 47 04 d7 bd 57 6e 54 3d 97 c3 cf 3e
       -0.08938884 -0.10498863 0.05186304 0.4057891
000040 2b 02 d8 bc ef 36 7a be 67 bc b4 be 95 07 34 be
       -0.026368221 -0.24435018 -0.3529999 -0.17581017
000050 bb 56 86 be 73 20 9f 3e 14 6c 04 be c7 36 30 3e
       -0.26238045 0.31079444 -0.12931854 0.17208396
000060 31 f0 3c 3e fa 32 16 3d 07 63 be be 6e b6 c5 3d
       0.18451001 0.03666971 -0.37184927 0.09653936
000070 82 99 07 be a5 41 ad 3e ed 29 a3 be 07 30 00 be
       -0.13242152 0.33839145 -0.31867924 -0.12518321
000080 44 e3 8b bc 90 d1 0f 3e 1e 90 be be aa 60 e3 bd
       -0.017076142 0.14044785 -0.37219328 -0.111024216
000090 00 bd 2b 3d c2 0b cf 3e 6c 6f 9b bb f7 19 a0 be
       0.04192829 0.40438658 -0.004743507 -0.3126981
0000a0 64 91 98 3e b1 eb 58 be 99 57 9e 3e 44 88 9e be
       0.29798424 -0.21183659 0.30926207 -0.30963337
0000b0 07 c4 88 be 05 31 64 be 92 14 49 3e 58 44 67 be
       -0.26712057 -0.22284324 0.19636753 -0.22584665
0000c0 af 30 98 be 66 d7 c0 3d b1 b7 4d be 7a d3 4c 3c
       -0.29724643 0.09416084 -0.20089604 0.012501592
0000d0 0a 7f 6a 3d 9b 2b a1 be 14 08 ab be 82 39 b2 3d
       0.05725006 -0.3147858 -0.334046 0.08702375
0000e0 db 3b a6 be 88 6a a6 3e 02 5d ab 3d ef b5 21 be
       -0.3246754 0.32503152 0.08367349 -0.15792058
0000f0 32 e9 10 3d 16 3b a4 3d b8 ad ba 3d 8a 88 da be
       0.035378642 0.08019082 0.091151655 -0.42682296
000100 cd f4 f7 3d 03 d4 a1 3e 88 85 2c be ae 22 53 3d
       0.12107239 0.31607065 -0.16847813 0.051546745
000110 5f bb d6 be 0c c3 e2 3e e9 67 93 bd 22 1d af 3e
       -0.41939828 0.44289434 -0.07197554 0.34201914
000120 5e 68 95 3e 2a e5 29 be 6e a2 d9 3e 88 4b a8 be
       0.29181188 -0.16591325 0.42506737 -0.32870126
000130 ba 2e 9c bc c3 96 e5 3e 02 b7 9b be 27 45 b4 be
       -0.01906525 0.44841585 -0.3041306 -0.3520901
000140 1e b3 e7 3e 94 d1 65 3e dd ad a3 be 98 ac 5e bc
       0.45253843 0.22443229 -0.31968585 -0.013590954
000150 10 dc ae 3e 0a 6b a5 3d 78 b8 e3 3d ad 48 1c bc
       0.3415227 0.08077057 0.11119169 -0.009538812
000160 a1 ec 54 be 49 a2 34 bd 4c bc f3 3c 8b a9 d6 be
       -0.20793392 -0.04410008 0.029752873 -0.41926226
000170 41 e7 53 be f8 c6 73 be 8d 38 8e 3e e4 9c 0a bd
       -0.20693685 -0.2380637 0.2777752 -0.03384103
000180 1a e1 73 be f7 b1 ab 3d c4 1c 7f 3e 5a 7f 62 be
       -0.23816338 0.083835535 0.24913317 -0.22118893
000190 30 ce 16 3e 53 b6 00 be 74 d4 a6 3d cd 4c 17 3e
       0.14727092 -0.12569551 0.08145991 0.14775391
0001a0 13 ff 4c 3d 88 d2 06 3e 24 f2 c3 bd c6 c1 41 bd
       0.050047945 0.13166249 -0.09567669 -0.047303937
0001b0 05 94 c3 bd b1 fc e9 3d be 7e 5c 3e 07 cb 1b be
       -0.09549717 0.1142515 0.21532723 -0.15214168
0001c0 2c 77 41 3e a7 57 b6 3e c4 86 71 be b8 f7 86 bd
       0.18893117 0.35613748 -0.23586565 -0.06590217
0001d0 7a 66 24 be c6 5c 90 3e 72 85 de 3e 11 26 ba 3e
       -0.16054717 0.2819578 0.43461186 0.36357167
0001e0 12 f7 23 3e 5d ce d9 bc aa 35 d7 3d af ba 03 bf
       0.16012219 -0.02658766 0.105082825 -0.5145673
0001f0 7f 63 a7 be f8 e6 b1 be 03 8b fd bc 63 01 49 be
       -0.32693097 -0.34746528 -0.030950075 -0.19629435
000200 52 d5 c4 be f3 05 58 3e f5 7c 53 3e 1f 41 0d bf
       -0.38444 0.2109602 0.20653136 -0.5517749
000210 bb f9 ce be 93 00 bb bc ca 4f a9 3d 6f aa 8a be
       -0.40424904 -0.022827422 0.08267172 -0.27083156
000220 75 ba 8c be c4 c6 74 3e 37 e0 66 3e d2 f3 b3 3d
       -0.27486005 0.23903948 0.22546469 0.087867394
000230 8f a9 8b be e3 e2 e1 be 1c 2a ea 3c 71 2d bd 3e
       -0.272778 -0.44118413 0.028584532 0.36948732
000240 67 e2 be bd dd a0 1e 3d 48 db e2 3e 00 38 7a be
       -0.093205266 0.03872763 0.44307923 -0.24435425
000250 01 fe d0 bd b1 f8 ce bc 2f 8e 34 3e ea 8f a2 be
       -0.102046974 -0.02526507 0.17632364 -0.31750423
000260 75 da 9d 3e 3a 0e f8 3d 8a 3b 70 3e f7 59 96 be
       0.30830732 0.121120885 0.23460212 -0.29365513
000270 bd 19 93 3e 25 f3 a1 be fc e6 0c 3e 5f ad 39 bc
       0.28730574 -0.31630817 0.13759989 -0.011332839
000280 4d fe 5c 3e 77 d2 ae be 9a 8f 64 bd 52 ab fd 3d
       0.21581383 -0.34144947 -0.05580101 0.123861924
000290 c7 46 62 3e f1 19 0e be 9d 04 99 3d 87 9c 82 3b
       0.22097312 -0.13877083 0.07471583 0.0039859447
0002a0 ea d8 a8 3e 84 4f 0a 3e 02 66 93 3e 29 bd 90 3d
       0.32977992 0.13506895 0.28788763 0.070673294
0002b0 0a 62 24 3d b3 94 52 be fb a3 e0 3e 8a 2e 6a 3e
       0.04013256 -0.20564537 0.43875107 0.22869316
0002c0 a1 ee 8e 3e db b5 1f 3e ec c1 61 3e 6b 93 a0 bd
       0.27916434 0.15596716 0.22046632 -0.07840618
0002d0 54 69 c4 be 71 1a b4 3d 42 8b 82 be d7 1b 95 3e
       -0.3836161 0.08794106 -0.2549687 0.29122803
0002e0 29 97 a0 3c 15 80 f6 3c 5a 49 3d 3d 34 01 ba be
       0.019603329 0.030090371 0.04621253 -0.36329043
0002f0 05 39 81 bd 8d c0 ac be 02 75 5a bd fc 85 52 3e
       -0.06309704 -0.33740655 -0.053334244 0.20558923
000300 c1 87 8c bd 1e 36 b2 3e 37 f9 9a be a9 91 8d 3e
       -0.068618305 0.34806913 -0.3026826 0.27650192
000310 04 4c ad 3e af 43 aa be 93 70 18 bd cf 90 ae bd
       0.33847058 -0.33254763 -0.037216734 -0.08523714
000320 40 92 f7 3d a4 3a 5c bd e0 50 bc 3d d1 44 b8 3e
       0.12088442 -0.05376686 0.09195113 0.35990003
000330 e9 87 54 3e f1 3e 20 be a2 d4 95 3e 2c c3 9e 3e
       0.2075497 -0.1564901 0.29263788 0.3100828
000340 7b 47 46 3e 22 72 01 be 6a 1d e1 bd a4 82 87 be
       0.19363205 -0.12641194 -0.109919384 -0.26466858
000350 0d 0f 2f 3e 3a e9 bb 3e 3a dc 65 3e 18 88 8b 3e
       0.17095585 0.36701375 0.22447291 0.2725227
000360 07 d6 66 bc f8 40 28 3e a2 e8 4b 3e 6b 5b 52 be
       -0.014089114 0.16431034 0.19912961 -0.20542686
000370 76 65 dc 3c c8 ee e4 be 04 fb 90 3e 62 e1 eb 3e
       0.02690385 -0.44713426 0.2831651 0.4607039
000380 25 13 7c bd 31 3f ec 3e e5 5d 6d bd 32 39 4b 3e
       -0.061541695 0.4614196 -0.057950873 0.19846037
000390 99 1a a4 3e 24 14 9c 3e 33 59 09 be 2a 5f a0 3e
       0.32051542 0.30484116 -0.13412933 0.31322604
0003a0 d5 8d 1f bd e3 39 95 be 85 63 e2 3d 99 5e a4 3e
       -0.03895362 -0.29145727 0.11054138 0.32103422
0003b0 2c 28 64 3d 99 99 f6 bd 37 53 98 be 95 b9 4f 3c
       0.055702373 -0.12041015 -0.29750988 0.012678524
0003c0 fb 70 a3 3e 62 81 6d 3e 01 f9 09 3e f8 96 97 be
       0.31922135 0.23193887 0.13473894 -0.29607368
0003d0 77 d0 01 3d 23 8d b9 3d aa 83 60 be be db 87 bd
       0.03169295 0.09060123 -0.21925226 -0.06633709
0003e0 b2 49 15 3e 67 55 99 3e cc 4c 33 3e 17 f2 f6 bd
       0.14578894 0.2994797 0.17509764 -0.12057894
0003f0 29 96 38 3e 41 13 ee bd 29 cb 49 3e c4 b2 0c be
       0.18026032 -0.11624766 0.19706406 -0.13740069

actor_fc3.bias f4 [15]
000000 c3 ca d9 3d 6e 19 a6 bc fe e0 2d bc 5d c3 5a bc
       0.10634377 -0.020275798 -0.010612724 -0.013352242
000010 b8 20 9d bd 1d 7a f8 bc 73 52 17 be a8 b3 aa 3b
       -0.07672256 -0.030331666 -0.14777546 0.005209405
000020 a2 a9 ee 3d f0 09 9d 3d fe c3 29 3c bb 59 02 3e
       0.11653449 0.07667911 0.01036167 0.12729542
000030 2a 2f 76 bd fe 3b a7 bd c2 94 8b bd
       -0.060103573 -0.081657395 -0.06815483

critic_fc1.weight f4 [10, 9]
000000 a0 9b 4c bd 82 c0 8b be 50 e1 bc 3e 3c 95 12 3e
       -0.049953103 -0.2729531 0.3689065 0.14314741
000010 00 5c cc 3e 0a e2 b6 be fd b9 db be 94 9c 22 3e
       0.3991394 -0.3571933 -0.42915335 0.15880042
000020 f0 c7 e3 3d b8 80 50 3e 14 bd 79 be 37 db c1 be
       0.111221194 0.20361602 -0.24388534 -0.3786256
000030 54 33 b3 be 3b ce bb be 78 ad 8b 3e 23 5a 0e 3f
       -0.35000098 -0.3668078 0.27280784 0.5560629
000040 66 2c 85 3e cf a2 0f 3f 40 4d 82 bc 58 23 a9 3d
       0.26010436 0.561078 -0.015905976 0.082586944
000050 c6 ea 90 3e 10 fa e2 bd 48 9f 61 be 88 40 82 3e
       0.28304118 -0.11082852 -0.22033417 0.25439858
000060 e8 10 04 3e 2b 7d eb be d2 6a 06 be df 96 bb be
       0.12897074 -0.45993933 -0.13126686 -0.36638543
000070 95 7f 00 bf b0 59 73 3e 8a e8 5f be cc ee 9e 3e
       -0.50194675 0.23764682 -0.2186605 0.31041563
000080 80 3f 78 3e f4 82 b3 3e d6 b7 9b be 4e fc 92 3e
       0.24242973 0.35060847 -0.30413693 0.28708118
000090 eb bb 85 be 82 a8 e5 3e f2 4c ca be de dd 49 be
       -0.26119933 0.44855124 -0.3951183 -0.19713542
0000a0 d0 3f ee be 94 8f ba 3e 1a 75 76 be 50 5f 40 3e
       -0.4653306 0.36437666 -0.24068108 0.18786359
0000b0 4f 9b 0c bf 28 94 70 3e 78 6d d0 3d c0 67 87 3c
       -0.5492448 0.23494017 0.101771295 0.016528964
0000c0 22 a9 e3 3e 60 a0 88 bc 6a a2 85 3e a0 29 dd 3c
       0.44464976 -0.016678035 0.26100475 0.026997387
0000d0 a0 98 91 bd 3c 5a 90 3e 12 2b 07 bf b0 65 85 3e
       -0.07109189 0.28193843 -0.52800095 0.26054144
0000e0 c8 64 e0 3d d8 1a c1 3e 54 19 af bd 1a 9c ff 3e
       0.109567225 0.37715793 -0.08549753 0.49923784
0000f0 bc c1 b7 3e e0 f2 65 3d 1c de c4 be b0 5f a3 bd
       0.35889995 0.056139827 -0.38450706 -0.07977235
000100 82 b9 f0 3e 25 4b 06 3f bc 14 e7 be 83 07 84 be
       0.4701653 0.5245841 -0.45133007 -0.2578698
000110 28 5c e4 bd 03 c0 e6 be fa 80 a9 3e e4 37 8b 3e
       -0.1115039 -0.45068368 0.33106214 0.2719108
000120 b0 8d 78 3d 47 c0 9a be 02 b0 b7 be ac f9 6b 3e
       0.060682 -0.3022482 -0.3587647 0.23044461
000130 28 53 4b be 90 b1 bf bd 81 24 ae be a0 70 d0 bc
       -0.1985594 -0.09360039 -0.34012225 -0.025444329
000140 a0 0e 90 bc 00 a5 be bd a0 8f db 3c 10 c6 c8 be
       -0.017585099 -0.09308815 0.026801884 -0.3921361
000150 a0 ce c2 bd 42 e9 f8 3e 82 e7 f1 be cc 61 1d 3e
       -0.09512067 0.48615462 -0.4724694 0.15369338
000160 e5 3f d2 be 80 fe 21 3e
       -0.41064373 0.1581974

critic_fc1.bias f4 [10]
000000 00 00 00 00 00 00 00 00 00 00 00 00 00 00 00 00
       0.0 0.0 0.0 0.0
000010 00 00 00 00 00 00 00 00 00 00 00 00 00 00 00 00
       0.0 0.0 0.0 0.0
000020 00 00 00 00 00 00 00 00
       0.0 0.0

critic_fc2.weight f4 [1, 10]
000000 fb cd 99 be 40 73 06 bf 80 ac 9c 3d 69 06 1f 3f
       -0.30039963 -0.5251961 0.07650089 0.62119156
000010 14 b2 9c be 19 aa 21 3f a8 1c 1f be 68 55 37 bf
       -0.30604613 0.63150173 -0.15538275 -0.71614695
000020 4c a5 d8 be e8 ed 38 be
       -0.42313612 -0.18059504
